models/dqn_lunar_lander.pth (torch, 75490 bytes, 6 tensors)

layer1.weight f4 [128, 8]
-0.12529965 -0.124080986 0.30200982 0.7635056 -0.67541814 0.19572471 0.11346 -0.35120624
-0.025733056 0.038097817 0.9048309 -0.7566815 0.18267591 0.005559995 0.13863082 -0.6281793
0.037057023 0.39326233 0.26134226 -1.3088256 -0.09772856 0.121403694 -0.43113732 -0.3446758
-0.34129047 0.03727199 0.18459462 -0.040642165 -0.5031425 -0.2890005 -0.2090964 0.19953437
0.73066235 -0.23008701 0.012231057 -0.053387366 -0.19756027 -0.2414701 -0.40487555 0.34073633
-0.17578025 0.24169712 0.4205036 -0.102991514 -0.51679945 0.56881493 0.22243318 -0.5289347
0.048506033 -0.82273513 -1.7239691 -0.16212605 -0.06764749 0.539521 0.079767324 -0.106567964
-0.15141585 0.12695315 -0.301158 -0.33186966 -0.5255502 -0.09298759 0.3887403 -0.1103103
-0.1594167 0.35536778 -0.1791946 -1.3624656 -0.19150226 -0.21449244 -0.5750109 -0.26031646
0.30984846 0.35251197 -0.6484289 -0.81557566 0.9189831 -0.25977123 -0.89268523 -0.32491165
0.18983142 0.3354525 0.19173218 0.43169367 -0.33894145 -0.26552257 0.2587885 -0.30141088
0.1827064 0.4083494 -0.6759965 0.36058077 0.66683036 -0.5578767 0.17157637 0.215221
-0.012563613 0.034946542 0.20707823 -0.45639712 -0.71480083 0.06675076 -0.28694916 -0.83028
0.41354698 -0.35350782 -0.24950066 -0.6319126 0.42860344 0.9733849 0.056805816 -0.7216871
0.64555216 0.119789496 0.33973238 0.54669505 -0.7270328 -0.22069211 -0.042688914 -0.09914561
-0.22692424 -0.042206034 -0.51370704 0.8546111 0.08855557 -0.15286718 0.4481068 0.41478956
-0.8975464 -0.023577197 -0.6156334 -0.13556388 -0.2581885 -0.365894 0.1363678 0.20323722
0.20688193 0.10981476 -0.67864615 -0.4609743 -0.1946618 -0.47002038 -0.50183916 -0.42067808
-0.063087374 0.16676164 0.24088213 0.14451382 -0.328771 -1.0197694 0.03019783 0.27368852
-0.3828909 0.029352775 -0.28865805 -0.038973473 -0.361634 -0.7357104 -0.13085213 0.42907247
-0.16956256 -0.5453656 1.4692727 0.42417094 0.2872068 0.075679876 0.45707652 0.3502819
0.0968565 0.35925674 0.1677823 -0.30294144 0.23354681 -0.6383098 -0.44249707 0.21274
0.32077667 -0.45437154 0.46298406 0.82339483 -1.0424478 -0.230153 -0.015423466 -0.039180372
0.40510926 -0.15953624 0.15119313 0.059737742 -0.89587754 -0.63971686 -0.017021617 -0.37936217
0.31891546 0.61927533 -0.52817315 -0.4019226 0.006400025 0.16652018 -0.4363667 -0.6624541
-0.054534838 -0.28909189 -0.07442848 -0.3777161 -0.66945195 -0.5602432 -0.34365603 0.4119032
0.3705131 -0.06061766 0.3598335 -0.13918017 -0.7451915 -0.00010763254 -0.0673356 0.07963826
0.025909942 -0.17534445 -0.11967956 0.5435353 -0.43832818 0.2797313 0.35448983 -0.14063416
0.070143536 -0.042596415 0.9430458 0.5697077 -0.21869017 0.014674558 0.30130637 0.29483783
-0.021625044 0.5202299 -0.18628669 -1.6953708 0.09214717 0.07635163 -0.23795277 -0.27428046
0.3994797 0.3983514 -0.28834078 -0.4269342 0.9278948 -0.78933835 0.038125277 -0.68499446
-0.093391076 0.3304443 0.25295284 0.35833552 -0.34581003 -0.50260586 -0.410911 -0.17430249
00000000: 8d4e 00be 2c1e febd 08a1 9a3e 1a75 433f
00000010: 34e8 2cbf 0f6c 483e b75d e83d 4ed1 b3be
00000020: 21ce d2bc 750c 1c3d ffa2 673f e1b5 41bf
00000030: 650f 3b3e 9e30 b63b 3df5 0d3e 5cd0 20bf
00000040: 1bc9 173d ae59 c93e a7ce 853e 9987 a7bf
00000050: e925 c8bd 80a2 f83d 08be dcbe 5979 b0be
00000060: a0bd aebe 84aa 183d 5f06 3d3e 6678 26bd
00000070: f2cd 00bf e0f7 93be 5e1d 56be bd52 4c3e
00000080: b00c 3b3f ee9b 6bbe c564 483c b6ac 5abd
00000090: 3d4d 4abe f043 77be d94b cfbe fe74 ae3e
000000a0: bdff 33be 737f 773e 3f4c d73e 37ed d2bd
000000b0: f84c 04bf db9d 113f 86c5 633e 4468 07bf
000000c0: 43ae 463d c59e 52bf 05ab dcbf 5f04 26be
000000d0: c48a 8abd 0c1e 0a3f 0d5d a33d 4e40 dabd
000000e0: c20c 1bbe 0200 023e 6231 9abe d2ea a9be
000000f0: 758a 06bf 4770 bebd f808 c73e 5eea e1bd
00000100: 223e 23be c4f2 b53e ca7e 37be 4665 aebf
00000110: 2b19 44be e8a3 5bbe ea33 13bf 3348 85be
00000120: 75a4 9e3e 737c b43e 70ff 25bf 91c9 50bf
00000130: 7a42 6b3f bc00 85be 0587 64bf d25a a6be
00000140: 2b63 423e 6ec0 ab3e 7155 443e f406 dd3e
00000150: bc89 adbe 93f2 87be ed7f 843e 8752 9abe
00000160: 6317 3b3e 2c13 d13e 1b0e 2dbf 0b9e b83e
00000170: 65b5 2a3f 02d1 0ebf b7b1 2f3e e562 5c3e
00000180: 9dd7 4dbc 1b24 0f3d 510c 543e e2ac e9be
00000190: 30fd 36bf 9fb4 883d 00eb 92be 3b8d 54bf
000001a0: 6ebc d33e fafe b4be 1a7d 7fbe 06c5 21bf
000001b0: e971 db3e c12f 793f 37ad 683d 7cc0 38bf
000001c0: e842 253f 3254 f53d 67f1 ad3e 35f4 0b3f
000001d0: d21e 3abf 1dfd 61be 92da 2ebd db0c cbbd
000001e0: d45e 68be 3ce0 2cbd 4e82 03bf cbc7 5a3f
000001f0: 9f5c b53d 3789 1cbe 416e e53e 4c5f d43e
00000200: 9ac5 65bf f724 c1bc 279a 1dbf 42d1 0abe
00000210: 4831 84be 7556 bbbe 00a4 0b3e 6b1d 503e
00000220: dbd8 533e 90e6 e03d c1bb 2dbf d304 ecbe
00000230: 6c55 47be 83a6 f0be 8878 00bf 1e63 d7be
00000240: f433 81bd 90c3 2a3e cea9 763e 6efb 133e
00000250: ac54 a8be ce87 82bf 7161 f73c e720 8c3e
00000260: 470a c4be 3b75 f03c fdca 93be a6a2 1fbd
00000270: 1728 b9be 8457 3cbf 1afe 05be 63af db3e
00000280: cfa1 2dbe 149d 0bbf 2111 bc3f ef2c d93e
00000290: c50c 933e 0dfe 9a3d ef05 ea3e 2658 b33e
000002a0: b35c c63d 80f0 b73e 20cf 2b3e 241b 9bbe
000002b0: e526 6f3e 4568 23bf fa8e e2be 84d8 593e
000002c0: d73c a43e 63a3 e8be 3f0c ed3e 01ca 523f
000002d0: ee6e 85bf 3aad 6bbe b5b2 7cbc 997b 20bd
000002e0: 7b6a cf3e 785d 23be 5fd2 1a3e 90af 743d
000002f0: 3b58 65bf 7cc4 23bf eb70 8bbc c23b c2be
00000300: e348 a33e d488 1e3f 5b36 07bf cdc8 cdbe
00000310: 4db7 d13b 4484 2a3e 756b dfbe 9896 29bf
00000320: ec5f 5fbd da03 94be f56d 98bd 0164 c1be
00000330: 3461 2bbf 196c 0fbf aff3 afbe fae4 d23e
00000340: e5b3 bd3e 394a 78bd 193c b83e 3f85 0ebe
00000350: dfc4 3ebf c8b8 e1b8 3fe7 89bd 6219 a33d
00000360: 1641 d43c 7f8d 33be 8f1a f5bd 2125 0b3f
00000370: 8d6c e0be f138 8f3e b17f b53e 6702 10be
00000380: 6aa7 8f3d 9479 2ebd 736b 713f 5dd8 113f
00000390: 51f0 5fbe 8f6d 703c d444 9a3e fcf4 963e
000003a0: 0127 b1bc c92d 053f f0c1 3ebe e901 d9bf
000003b0: a8b7 bc3d 3e5e 9c3d e4a9 73be 7d6e 8cbe
000003c0: 9a88 cc3e b7f4 cb3e 67a1 93be 1f97 dabe
000003d0: 838a 6d3f 1412 4abf 4029 1c3d cc5b 2fbf
000003e0: d243 bfbd ff2f a93e 0983 813e c177 b73e
000003f0: 030e b1be c7aa 00bf ed62 d2be 5a7c 32be

layer1.bias f4 [128]
-0.3109199 0.0025607536 0.26605374 0.3259281 -0.24744351 -0.27536243 0.031011047 -0.13272426
0.15178469 0.41266108 0.1429058 0.37211576 0.07206483 -0.39134556 0.18154533 0.28941286
-0.030136144 0.106776185 0.07554782 -0.029618317 -0.0033224982 0.5305154 -0.10203194 0.14527015
0.025431663 -0.18506809 0.18063986 -0.078446425 0.54414994 0.19419451 0.27675277 0.117249005
-0.6132077 0.004279546 0.30120802 0.4651654 0.18735121 0.329674 0.2787114 0.13082708
0.19523832 -0.09772333 0.19308077 -0.2493513 0.14777851 -0.020874133 0.27449766 0.26322213
0.22274898 0.34921896 0.2064604 -0.016104553 -0.007520828 -0.1746365 0.14422965 -0.07038841
0.17065729 0.26372808 0.16911447 0.36297017 0.25858217 0.45666355 0.1515864 -0.1454405
0.3040466 0.337031 0.31372824 -0.046687208 0.23352255 -0.46888024 0.44786394 0.17794888
0.46232852 0.13873094 0.30620882 0.29827955 0.36726218 0.49480295 0.12969674 0.46095216
0.29369897 0.41169453 0.20867306 0.3206333 0.36726928 0.4159607 0.22899644 -0.012637991
0.24335265 0.45681873 -0.42917344 0.33740887 0.21662928 0.5495006 0.19530296 -0.4346347
0.04257379 -0.4203716 0.32826516 0.112509 0.423981 0.4067873 0.18099792 0.55518085
0.16495514 -0.20673288 -0.15421224 0.081090815 0.4888213 0.47724494 -0.3656885 0.3404415
-0.025540486 -0.35948032 0.3565028 -0.06953873 0.40762743 0.12379084 0.14760824 -0.21344522
-0.08892894 -0.12639405 0.0058539463 0.360343 0.28473642 0.2034062 0.50931555 0.14774242
00000000: e530 9fbe 51d2 273b 3238 883e 0ce0 a63e
00000010: d561 7dbe 4efc 8cbe e10a fe3c dee8 07be
00000020: 726d 1b3e 5048 d33e e655 123e f585 be3e
00000030: ba96 933d 725e c8be 05e7 393e ec2d 943e
00000040: 13e0 f6bc 79ad da3d d1b8 9a3d 1da2 f2bc
00000050: 45be 59bb dbcf 073f 1ff6 d0bd b3c1 143e
00000060: 1056 d03c 7d82 3dbe a8f9 383e 85a8 a0bd
00000070: 694d 0b3f edda 463e 8ab2 8d3e 3f20 f03d
00000080: 2efb 1cbf 6f3b 8c3b f037 9a3e 292a ee3e
00000090: ffd8 3f3e 08cb a83e 43b3 8e3e 89f7 053e
000000a0: 8eec 473e 2b23 c8bd f7b6 453e f255 7fbe
000000b0: 4053 173e 3b00 abbc f58a 8c3e 0dc5 863e
000000c0: 4f18 643e d4cc b23e 5b6a 533e b2ed 83bc
000000d0: 4771 f6bb e9d3 32be f0b0 133e cc27 90bd
000000e0: c9c0 2e3e 5e07 873e 582c 2d3e 3ad7 b93e
000000f0: e264 843e cecf e93e 7739 1b3e 5bee 14be
00000100: ffab 9b3e 548f ac3e fda0 a03e 163b 3fbd
00000110: 8920 6f3e 1211 f0be 6c4e e53e 3b38 363e
00000120: 53b6 ec3e 7c0f 0e3e 67c7 9c3e 19b8 983e
00000130: ca09 bc3e d056 fd3e 39cf 043e ec01 ec3e
00000140: b65f 963e a0c9 d23e 64ae 553e 0c2a a43e
00000150: b80a bc3e cdf8 d43e 0b7e 6a3e 940f 4fbc
00000160: 7031 793e 25e4 e93e 9fbc dbbe dbc0 ac3e
00000170: 11d4 5d3e 12ac 0c3f 80fd 473e 7088 debe
00000180: db61 2e3d f23a d7be 5f12 a83e 1e6b e63d
00000190: 0a14 d93e 6d46 d03e 8557 393e 5520 0e3f
000001a0: 00ea 283e c9b1 53be d0e9 1dbe f112 a63d
000001b0: c946 fa3e 7359 f43e 863b bbbe 594e ae3e
000001c0: 483a d1bc ce0d b8be 8987 b63e 526a 8ebd
000001d0: 8bb4 d03e 0d86 fd3d 9d26 173e 6291 5abe
000001e0: 6020 b6bd 716d 01be 76d2 bf3b e17e b83e
000001f0: f9c8 913e b749 503e 8162 023f ca49 173e

layer2.weight f4 [128, 128]
-0.41829515 -0.3481805 0.1773633 0.1462078 0.16386773 -0.25841728 0.95804304 0.57477677
0.3008064 0.1570895 0.20151933 -0.009603917 -0.23345706 -0.40512684 -0.23587629 0.22119743
0.07102106 -0.2617762 -0.50781447 0.37483653 -0.58552265 0.031328697 -0.80670273 0.0181484
-0.04292686 0.5254905 0.29836026 -0.7106594 -0.08188006 0.08313438 0.09104335 -0.04871158
1.2907784 -0.3294022 -0.11182277 -0.026645998 0.15078609 -0.040286135 -0.25667062 -0.06397465
-0.6740048 -0.21822838 0.1722014 0.093861826 -0.30538547 0.39817926 -0.1543372 0.17298327
0.17093606 0.294464 0.17907234 -0.07863819 -1.9930066 -0.6831712 0.101296686 -1.1593925
0.15035248 0.117081285 0.13317299 0.17437786 0.38451785 0.05734575 0.10545476 -0.22523329
0.21142729 0.07847153 -0.21227515 0.15668234 0.20511922 -0.49131662 0.078437634 0.17274344
0.17884591 -0.0058117495 -0.058535904 -0.030452909 -0.049573842 0.068343095 -0.054984376 0.20079632
0.07773406 0.1038461 -0.1687177 0.16209178 0.20155592 0.08209656 0.15268366 0.671014
0.21778758 -0.05701948 0.28895906 -0.014170505 0.12212856 0.17350306 -0.056441456 0.6602171
-0.54313326 0.9451271 0.07945028 -0.13401592 0.032881424 0.007931703 -0.1968704 0.2343197
-0.13251339 -0.31975803 -0.060866155 0.6660794 0.253748 0.0467483 0.84778976 0.056782953
-0.2731651 0.9700969 -0.093605086 -1.0417025 0.12518366 -0.39844155 -0.26078594 1.2397978
0.38350952 -0.80999005 -0.059579566 0.08607868 -0.25024256 0.14899099 -0.000689314 0.27952442
-0.32916054 0.45631528 0.12707283 0.08941519 -0.31709856 0.03353354 -0.38242847 -0.27360567
0.05680932 0.27798605 -0.1531947 0.09395067 -0.19382572 -0.853646 -0.09945113 -0.016418315
-0.44314513 0.61026317 -0.12927493 -0.17722411 0.3902573 0.23820512 0.5385284 -0.29551846
0.48423463 -0.31043142 -0.32914007 -0.36915624 -0.009164261 0.14415021 0.26559344 -0.12396146
-1.2401291 -0.07995777 -0.09100319 0.2206892 0.1704164 0.18627343 -0.12291656 0.08583297
1.0636545 0.4515563 0.12269957 -0.59173423 0.14890571 -0.16638805 -0.02471328 -0.32709512
0.17616777 0.0600383 -0.11139189 0.43507326 0.87568295 -0.51869965 0.19784288 1.0869937
0.39709425 0.015651835 -0.119662605 0.18757157 -0.31826583 0.30896243 -0.09581172 0.37643257
0.15887554 0.30779347 -0.3750282 0.2973397 0.12059409 -0.6443896 0.28876033 -0.23437206
0.25783858 -0.13688375 0.31883004 -0.111422874 0.22255045 -0.072831936 -0.16531974 0.28519475
0.21033067 0.12175294 -0.28334174 0.2153223 0.003079299 0.16638975 0.16930795 -0.30995685
0.0781331 0.24118835 -0.37356353 -0.10930199 0.2951932 0.22117838 0.80622756 -0.7459679
0.1126144 -0.5822383 -0.23173209 0.25424543 0.25721204 0.272599 -0.13971744 0.2255401
-0.168349 -0.5221595 -0.32847705 -0.4842492 0.09185424 0.26656252 -0.95835406 0.18520279
0.42866555 -0.92877316 -0.16920769 0.30805436 0.08910144 -0.31098324 -0.02825278 -1.072058
0.20144166 -0.35926464 0.26173052 0.09293372 -0.14171432 -0.34911326 0.28600973 -0.35914296
00000000: c82a d6be b744 b2be ba9e 353e 7fb7 153e
00000010: f1cc 273e 454f 84be 4f42 753f 9224 133f
00000020: 4c03 9a3e 12dc 203e 155b 4e3e bf59 1dbc
00000030: 5e0f 6fbe c96c cfbe 8e89 71be 9481 623e
00000040: 7d73 913d 8807 86be 2100 02bf 93ea bf3e
00000050: d0e4 15bf 8552 003d 1284 4ebf f4ab 943c
00000060: 13d4 2fbd 8c86 063f adc2 983e c6ed 35bf
00000070: bcb0 a7bd 5c42 aa3d f074 ba3d cb85 47bd
00000080: 3a38 a53f 68a7 a8be 5603 e5bd b548 dabc
00000090: ab67 1a3e 1303 25bd 556a 83be 2405 83bd
000000a0: 948b 2cbf 4377 5fbe 9055 303e a13a c03d
000000b0: 7c5b 9cbe 27de cb3e 920a 1ebe 8722 313e
000000c0: dd09 2f3e fcc3 963e bd5e 373e 0f0d a1bd
000000d0: d71a ffbf 4fe4 2ebf a374 cf3d f966 94bf
000000e0: 00f6 193e 50c8 ef3d 805e 083e 1c90 323e
000000f0: 86df c43e 61e3 6a3d aaf8 d73d 8ea3 66be
00000100: 6580 583e aeb5 a03d a85e 59be 5671 203e
00000110: c60a 523e da8d fbbe e9a3 a03d a8e3 303e
00000120: 6223 373e 7d70 bebb 58c3 6fbd 6178 f9bc
00000130: f10d 4bbd 77f7 8b3d 4c37 61bd 8d9d 4d3e
00000140: 0933 9f3d 44ad d43d 55c4 2cbe 63fb 253e
00000150: ad64 4e3e 3e22 a83d 1b59 1c3e 93c7 2b3f
00000160: b503 5f3e 428d 69bd 71f2 933e 682b 68bc
00000170: 8a1e fa3d c9aa 313e 282f 67bd fd03 293f
00000180: c80a 0bbf daf3 713f d4b6 a23d 783b 09be
00000190: acae 063d f9f3 013c 6598 49be 81f1 6f3e
000001a0: 97b1 07be 53b7 a3be ca4e 79bd 2e84 2a3f
000001b0: 42eb 813e 257b 3f3d c008 593f 3e95 683d
000001c0: 4cdc 8bbe 4558 783f 06b4 bfbd 8256 85bf
000001d0: 2530 003e 8800 ccbe bc85 85be b2b1 9e3f
000001e0: 5c5b c43e 825b 4fbf b409 74bd 054a b03d
000001f0: cb1f 80be 1891 183e 14b3 34ba d31d 8f3e
00000200: bb87 a8be 28a2 e93e 611f 023e 501f b73d
00000210: be5a a2be 775a 093d aacd c3be 0b16 8cbe
00000220: e4b0 683d 3054 8e3e 12df 1cbe 3569 c03d
00000230: 407a 46be 8b88 5abf 09ad cbbd b47f 86bc
00000240: ebe3 e2be 353a 1c3f a660 04be 3d7a 35be
00000250: cecf c73e 0bec 733e ffdc 093f 324e 97be
00000260: 9aed f73e def0 9ebe 0c85 a8be 0c02 bdbe
00000270: b225 16bc 1d9c 133e ddfb 873e 82df fdbd
00000280: 8dbc 9ebf e6c0 a3bd e15f babd 5afc 613e
00000290: a381 2e3e 76be 3e3e adbb fbbd 32c9 af3d
000002a0: d525 883f 6332 e73e ea49 fb3d e57b 17bf
000002b0: bd7a 183e a161 2abe 8173 cabc 0379 a7be
000002c0: 5365 343e b8ea 753d 6e21 e4bd ecc1 de3e
000002d0: c22c 603f 80c9 04bf 5397 4a3e 9c22 8b3f
000002e0: f04f cb3e 4738 803c ab11 f5bd c312 403e
000002f0: bdf3 a2be 5330 9e3e ef38 c4bd c5bb c03e
00000300: 45b0 223e 1b97 9d3e b203 c0be e93c 983e
00000310: 09fa f63d b8f6 24bf 65d8 933e 3bff 6fbe
00000320: 6b03 843e 412b 0cbe b13d a33e ad31 e4bd
00000330: 44e4 633e e928 95bd 9449 29be 0c05 923e
00000340: ec60 573e 9b59 f93d 2b12 91be 737d 5c3e
00000350: 10ce 493b 1362 2a3e 105f 2d3e aab2 9ebe
00000360: 3f04 a03d 14fa 763e b843 bfbe b9d9 dfbd
00000370: 9023 973e 967c 623e ee64 4e3f c1f7 3ebf
00000380: 61a2 e63d 920d 15bf 2d4b 6dbe 752c 823e
00000390: 4cb1 833e 1992 8b3e 1712 0fbe fcf3 663e
000003a0: ae63 2cbe 3fac 05bf 252e a8be 83ef f7be
000003b0: 131e bc3d e27a 883e b156 75bf cda5 3d3e
000003c0: 0d7a db3e 14c4 6dbf c844 2dbe 4db9 9d3e
000003d0: d17a b63d 3239 9fbe 6072 e7bc 3239 89bf
000003e0: b946 4e3e 89f1 b7be 8b01 863e 0954 be3d
000003f0: 8f1d 11be f9be b2be de6f 923e 96e1 b7be

layer2.bias f4 [128]
-0.035871405 0.27009025 -0.018082483 0.13031588 0.30251735 -0.08811986 0.14935741 -0.12954663
-0.11851188 0.15727963 0.33317435 -0.09335373 -0.104501255 0.013897988 0.29206836 0.1645005
-0.030868968 0.015282864 -0.040800538 0.24363972 -0.14560147 -0.03065925 -0.078357466 -0.16719797
0.16339079 0.059946034 0.16946681 0.29480714 -0.04683877 0.027101625 -0.20485541 -0.1080407
-0.033180933 -0.033705633 0.19661395 -0.020988556 0.03184083 -0.039001986 -0.046940573 0.045483723
0.008691703 0.3510217 -0.111181766 -0.033469368 0.19696552 -0.050234485 0.08174305 -0.052777432
-0.09461257 -0.00821982 0.11706839 0.2491191 0.13211498 -0.09008051 -0.03924585 -0.10346618
0.37654433 -0.117130734 0.089901775 0.14125447 0.12372661 -0.08876351 -0.13053492 -0.05526687
-0.04360555 -0.06096753 0.32057017 0.047313012 0.31913647 -0.041124813 -0.05987143 -0.06781438
-0.054389004 0.17806104 -0.0972892 0.19107191 -0.06133681 0.008939747 0.17576434 0.13045612
-0.10351028 0.13335365 -0.0012527595 -0.09650929 0.012982551 0.16281255 -0.1164073 0.09134001
0.09179051 -0.060101118 -0.03159015 0.18023153 -0.08809698 0.28919363 0.06347799 0.013751929
0.1405173 0.050325718 0.017861798 0.05205299 -0.08029877 -0.06286086 0.19909462 -0.08440009
0.22126934 0.123732895 0.24337006 -0.06557028 -0.050933897 -0.32762218 0.06409597 0.319128
0.01665684 0.04304965 -0.0077678286 -0.06247895 -0.034350663 -0.044588313 -0.045865983 0.2518095
-0.07602452 0.08835963 -0.07065104 0.112212874 0.0024450014 0.24171285 0.07246118 -0.027634023
00000000: e5ed 12bd 4549 8a3e b721 94bc 8771 053e
00000010: 8ee3 9a3e 2f78 b4bd 26f1 183e dfa7 04be
00000020: 5bb6 f2bd e90d 213e d495 aa3e 3e30 bfbd
00000030: c104 d6bd 63b4 633c fc89 953e d272 283e
00000040: ebe0 fcbc fa64 7a3c 771e 27bd b17c 793e
00000050: 8d18 15be 1c29 fbbc e179 a0bd f235 2bbe
00000060: ea4f 273e f989 753d b588 2d3e f6f0 963e
00000070: 03da 3fbd 3a04 de3c 9ec5 51be 7144 ddbd
00000080: bbe8 07bd eb0e 0abd 2b55 493e 31f0 abbc
00000090: 886b 023d 8cc0 1fbd c244 40bd 244d 3a3d
000000a0: a567 0e3c 1eb9 b33e 44b3 e3bd 2d17 09bd
000000b0: 54b1 493e adc2 4dbd e668 a73d 262d 58bd
000000c0: 3cc4 c1bd 6dac 06bc 8dc1 ef3d 1419 7f3e
000000d0: 2649 073e 217c b8bd 42c0 20bd 14e6 d3bd
000000e0: 6bca c03e 3de2 efbd 6c1e b83d 03a5 103e
000000f0: 6064 fd3d a5c9 b5bd f2aa 05be 835f 62bd
00000100: bc9b 32bd 17b9 79bd c621 a43e 4acb 413d
00000110: db65 a33e 7e72 28bd bf3b 75bd 44e2 8abd
00000120: 01c7 5ebd a255 363e 8f3f c7bd 5ba8 433e
00000130: 4f3c 7bbd 0478 123c 91fb 333e 4a96 053e
00000140: 33fd d3bd dc8d 083e a233 a4ba aaa6 c5bd
00000150: c4b4 543c 55b8 263e f366 eebd 7910 bb3d
00000160: aafc bb3d 972c 76bd ac64 01bd 9d8e 383e
00000170: 306c b4bd 3011 943e c000 823d c54f 613c
00000180: c4e3 0f3e 5722 4e3d e852 923c 8435 553d
00000190: ae73 a4bd 32bd 80bd 76df 4b3e f4d9 acbd
000001a0: 6e94 623e ac67 fd3d 0036 793e b649 86bd
000001b0: 10a0 50bd 18be a7be bf44 833d bf64 a33e
000001c0: ed73 883c d454 303d 4589 febb ede9 7fbd
000001d0: 48b3 0cbd 3ca2 36bd f8dd 3bbd 2ded 803e
000001e0: beb2 9bbd e5f5 b43d 7eb1 90bd ddcf e53d
000001f0: 513c 203b 9383 773e 8766 943d bf60 e2bc

layer3.weight f4 [4, 128]
-0.34887528 0.2624559 -0.044081345 0.5871873 0.4397799 -0.5203297 0.57096934 -0.84471697
-0.72271997 0.54325837 0.33999947 -0.6746234 -0.6293384 -0.56132174 0.3306236 0.35630402
-0.45076677 0.5630273 -0.5617108 0.37058693 -0.621509 -0.60242695 -0.59021246 -0.49928996
0.49315563 0.46422789 0.5592535 0.44830704 -0.19165522 0.8648229 -0.49014965 -0.55775195
-0.49842983 -0.48318663 0.9363103 -0.45555195 -0.7138957 -0.6548925 -0.39608622 -0.059619993
-0.6029646 0.44800234 -0.5931967 -0.76752543 0.34264487 -0.6579543 -0.45040402 -0.42829528
-0.5670127 -0.4142323 -0.5664675 0.34993076 0.5711313 -0.61319363 -0.56767696 -0.7478195
0.39659518 -0.78065157 0.6143053 0.035234805 -0.54339355 -0.5107415 -0.45964766 -0.5663265
-0.055004563 -0.05378182 0.41187346 -0.0867835 0.34319493 -0.68773556 -0.5233155 -0.86141175
-0.51580507 0.53561586 -0.5464874 0.6300817 -0.45696035 -0.48967308 0.6945572 0.5612988
-0.8006971 0.8580659 -0.6320773 -0.74681294 -0.50006247 0.37156436 -0.584007 0.1919706
0.14782706 -0.2993385 -0.6311439 0.8798683 -0.8259462 0.38884515 0.66451716 0.29159296
0.6997345 -0.051667497 -0.047409248 -0.7868152 -0.3823773 -0.6220878 0.30783144 -0.5521028
0.32993925 0.16589038 0.35372257 -0.501524 -0.47361803 -1.0749918 0.3528504 0.29956865
1.2074572 -0.42932063 -0.7922282 0.01072687 -0.46587676 -0.76713026 -0.024320226 0.264112
-0.39656657 0.6197443 -0.544748 0.54519147 -0.5189124 0.51030195 1.2285162 -0.4578403
0.18159473 0.3330618 -0.03167142 0.60796326 0.33485022 -0.5869658 0.616803 -0.7422981
-0.572049 0.56840926 0.3187436 -0.6730602 -0.5546449 -0.52859753 0.40274662 0.41557088
-0.39940014 0.7637454 -0.54380804 0.20960358 -0.4522083 -0.5268781 -0.5013269 -0.5669639
0.5862664 0.6433573 0.5628571 0.38220415 -0.07257574 0.6999851 -0.5487757 -0.57087666
-0.43772557 -0.6172071 0.77400124 -0.49995625 -0.7309883 -0.6910683 -0.45602372 -0.049196344
-0.5867213 0.2885479 -0.5256246 -0.6757752 0.365182 -0.68488914 -0.48874894 -0.5178445
-0.5464601 -0.43842164 -0.63359934 0.2657417 0.5795208 -0.53760934 -0.4712945 -0.76990515
0.36106533 -0.7692408 0.54863596 0.40178826 -0.84824485 -0.62811404 -0.4911779 -0.6077972
0.010182385 -0.03726201 0.3171993 0.037954055 0.30790338 -0.88258815 -0.51980567 -0.8033309
-0.635666 0.52826554 -0.47286296 0.46905854 -0.5048556 -0.51382506 0.5235234 0.60589343
-0.8837552 0.8166575 -0.61996377 -0.679798 -0.5348313 0.17772083 -0.5788481 0.5659744
0.48094353 0.031599745 -0.449087 0.89403903 -0.99380213 0.4105158 1.0631356 0.480325
0.56727386 -0.051129248 -0.053624894 -1.1429653 -0.37631315 -0.75763613 0.27845654 -0.5720883
0.26536638 0.45464373 0.2902551 -0.31824115 -0.5857359 -0.86779654 0.45953438 0.35897872
1.1989635 -0.6741911 -0.8837388 -0.012657142 -0.4275991 -0.7937908 0.056076303 0.34440097
-0.32088515 0.5129852 -0.5674908 0.6234334 -0.44046676 0.51266205 1.2845926 -0.5786466
00000000: c89f b2be 9f60 863e a48e 34bd e851 163f
00000010: d52a e13e 5434 05bf 0c2b 123f 5f3f 58bf
00000020: 2d04 39bf fb12 0b3f 6914 ae3e 1fb4 2cbf
00000030: 521c 21bf c8b2 0fbf 7f47 a93e 7b6d b63e
00000040: e7ca e6be 8f22 103f 47cc 0fbf 92bd bd3e
00000050: 371b 1fbf a738 1abf 2a18 17bf efa2 ffbe
00000060: e57e fc3e 47af ed3e 3d2b 0f3f 8088 e53e
00000070: 4441 44be 0965 5d3f e5f4 fabe d5c8 0ebf
00000080: 3232 ffbe 3d64 f7be 08b2 6f3f 1b3e e9be
00000090: dec1 36bf 09a7 27bf d0cb cabe 1834 74bd
000000a0: e35b 1abf 9060 e53e bddb 17bf 8c7c 44bf
000000b0: 266f af3e b16f 28bf 5b9b e6be 8549 dbbe
000000c0: bf27 11bf 4216 d4be 0404 11bf 202a b33e
000000d0: a935 123f 42fa 1cbf 4753 11bf 1971 3fbf
000000e0: 860e cb3e c8d8 47bf 1d43 1d3f 5f52 103d
000000f0: d71b 0bbf f4bf 02bf f056 ebbe c6fa 10bf
00000100: 774c 61bd 534a 5cbd 14e1 d23e 8cbb b1bd
00000110: 3fb7 af3e 700f 30bf 01f8 05bf 7b85 5cbf
00000120: cd0b 04bf 1f1e 093f 99e6 0bbf 094d 213f
00000130: b5f6 e9be 6eb6 fabe 80ce 313f 47b1 0f3f
00000140: 7cfa 4cbf 35aa 5b3f d1cf 21bf 222f 3fbf
00000150: 1804 00bf af3d be3e 7c81 15bf f193 443e
00000160: fa5f 173e e542 99be a692 21bf 0d3f 613f
00000170: 3671 53bf b616 c73e cc1d 2a3f ac4b 953e
00000180: cd21 333f 4ca1 53bd 3330 42bd b96c 49bf
00000190: f5c6 c3be 2541 1fbf 159c 9d3e 9c56 0dbf
000001a0: cced a83e 2bdf 293e 201b b53e e063 00bf
000001b0: 107e f2be 5599 89bf cfa8 b43e 1061 993e
000001c0: f58d 9a3f eacf dbbe 78cf 4abf c1bf 2f3c
000001d0: 6687 eebe a662 44bf 363b c7bc b039 873e
000001e0: c60a cbbe 90a7 1e3f 9b74 0bbf ab91 0b3f
000001f0: 71d7 04bf 26a3 023f 0540 9d3f 0b6a eabe
00000200: f8f3 393e 1487 aa3e e4b9 01bd 7ba3 1b3f
00000210: 7d71 ab3e 6443 16bf cde6 1d3f 4007 3ebf
00000220: ce71 12bf 4583 113f 5c32 a33e ac4d 2cbf
00000230: 35fd 0dbf 2b52 07bf ce34 ce3e b5c5 d43e
00000240: 2d7e ccbe d284 433f 0137 0bbf 52a2 563e
00000250: d987 e7be 7ce1 06bf f656 00bf 8c24 11bf
00000260: 8e15 163f 10b3 243f 6717 103f 43b0 c33e
00000270: 97a2 94bd 3932 333f 907c 0cbf f924 12bf
00000280: 911d e0be 4901 1ebf f224 463f 44fa ffbe
00000290: 0d22 3bbf dae9 30bf f17b e9be 1b82 49bd
000002a0: 5e33 16bf 8dbc 933e 558f 06bf 9aff 2cbf
000002b0: 23f9 ba3e e554 2fbf 4d3d fabe 7591 04bf
000002c0: cfe4 0bbf cd78 e0be 9133 22bf 4c0f 883e
000002d0: 7a5b 143f c4a0 09bf 834d f1be 8118 45bf
000002e0: 8edd b83e f7ec 44bf 6873 0c3f 31b7 cd3e
000002f0: 9326 59bf 15cc 20bf ab7b fbbe 9998 1bbf
00000300: 05d4 263c 0da0 18bd f267 a23e b675 1b3d
00000310: 83a5 9d3e 4cf1 61bf fc11 05bf 18a7 4dbf
00000320: 02bb 22bf 693c 073f 181b f2be 7128 f03e
00000330: 373e 01bf 0a8a 03bf a105 063f d51b 1b3f
00000340: c83d 62bf 7710 513f f2b5 1ebf 3e07 2ebf
00000350: b4ea 08bf 73fc 353e 642f 14bf b3e3 103f
00000360: 3b3e f63e bc6e 013d bbee e5be bedf 643f
00000370: d169 7ebf 202f d23e d414 883f 29ed f53e
00000380: dc38 113f e76c 51bd c7a5 5bbd b04c 92bf
00000390: 1eac c0be 71f4 41bf db91 8e3e 6174 12bf
000003a0: 1ade 873e 10c7 e83e 519c 943e 81f0 a2be
000003b0: caf2 15bf ea27 5ebf 1748 eb3e 0fcc b73e
000003c0: a377 993f ca97 2cbf b53c 62bf e75f 4fbc
000003d0: 45ee dabe e035 4bbf 44b0 653d 5355 b03e
000003e0: 0f4b a4be 0053 033f 1447 11bf 5599 1f3f
000003f0: dc84 e1be d23d 033f 886d a43f 2f22 14bf

layer3.bias f4 [4]
0.14394324 0.0887331 0.10828336 0.23156478
00000000: db65 133e b3b9 b53d abc3 dd3d 511f 6d3e
